Tugas weekday/RL/QL_activity2/model/model.pth (torch, 16799 bytes, 4 tensors)

l1.weight f4 [256, 11]
00000000: c6e1 47be b285 54be e3c0 433e 6ace 993e
00000010: 1514 94be 18a8 99be 31e8 843e d4b2 c53b
00000020: 4afa e6be 78c5 e2be 8742 a13d f47f a53e
00000030: 8a11 c8bd 4f4f bb3e 624b 71bb 5100 033e
00000040: bed7 a9be cdd1 ecbd c5ba c4bd 6c99 19be
00000050: 3636 923e 42bb 8c3d 70b3 2fbe e6b9 253e
00000060: ac73 76be 2084 f53d 3025 adbe e387 adbe
00000070: c6ea 16be dbb1 163e f25e 96be a563 a8be
00000080: ebfb 80be 30b0 823d 2e58 103e 26ef fabd
00000090: e824 87be 9282 953d 07d8 47be 4f21 82be
000000a0: 5810 b63e 738a 273e 8413 dc3e 46c3 a13e
000000b0: ff03 9e3e e6a4 cd3d 312c c53e 4d7c 3a3e
000000c0: e6b5 203d 9629 5e3e 3327 22be 33f3 2d3e
000000d0: bc74 2bbc 113b 6c3e ecbf 003d 516f 9abe
000000e0: 378d a2be 3d25 1dbe 8762 3e3e 8f3d 98be
000000f0: 48e2 2f3e 5127 94be b11c ab3d d10b 87be
00000100: 85aa 253e 7f04 81be 8780 d23e fd28 f5bd
00000110: ed2e a43e 0851 53be 393f dc3d 2e0d 773d
00000120: 09b7 88bc 231a 2e3e 8bd5 24be 3eb9 eabd
00000130: 7d9d 963e 5b77 ed3d 2f79 3a3e f50c 42be
00000140: 8ce2 863e 7f49 7bbe 925a 5d3d c07d 3e3e
00000150: 5249 8ebe 9744 7d3e 4d1f 41bd 72f1 5cbe
00000160: ae9a 2d3e a423 c93e f8ee b5be dd08 533e
00000170: 69df 24be f1ab 43be 6222 173e b5d5 f73d
00000180: d6c2 903e 0ed6 d0bc 65f0 fbbd 8c71 fe3c
00000190: a267 6a3e 501c 5d3e fc0d 0e3e ecf9 8a3d
000001a0: 73df debe 7b3d c73d 1740 ffbd 5ee2 85be
000001b0: dfc9 b73e 047f 9ebe edcc 71be dba5 bfbe
000001c0: 8c19 04be b07c 3bbe 4302 86be 11ca cd3c
000001d0: c31e c93e 4e84 a83e 8374 9a3e eb31 e3be
000001e0: 9fb9 c7be 01b0 1a3e e43d f53e ca8e 143e
000001f0: 7ea6 c0be 4250 1b3c a5f5 f0bd 99aa b9bd
00000200: 2ec7 923e b069 b43e 4402 1abd 43aa 9d3e
00000210: f541 3bbe 40df 323f c7eb 92be b7d5 813e
00000220: cfb8 8a3d cd18 553d bf63 0b3d fedf 9b3e
00000230: 2a7f a83d 4af6 16be 33df 7dbd 833c 3fbd
00000240: 660f ef3e 06ac 70be 0630 43be d540 723b
00000250: dc21 18be 06e0 fb3d 8f53 d6bd 846b 173e
00000260: 7272 023e 9a3b 37bd 5e7b f1be 34fa c53d
00000270: b356 553e 792e ccbe 47fe b33d 7d8e 483e
00000280: ba9b bc3d 5aaf adbe a2bc 513e 2bbc 06be
00000290: 3d48 463e be10 3ebd 3d03 24be 7742 903e
000002a0: c283 4fbe 01b3 68bd 1fb1 1bbe 4edb 793e
000002b0: 9660 2c3d 7ce5 eebd e141 f8bc 2165 8f3e
000002c0: fb89 693e c9f8 35bc e097 813e a8cd 8ebd
000002d0: 2317 573b e8e8 24be c71a 75be 8019 0e3e
000002e0: cd38 1a3e 2c23 93be 3294 593e a776 6ebe
000002f0: 8a56 0c3f 463a 35be 6e93 3dbd 0ab7 f3bd
00000300: 44b6 a23c 41b3 e3bd a11b 43bd 9fa3 a5bd
00000310: a94f 85ba 538d 203d 01cd bd3e 3b02 e03e
00000320: f2bf aabc b8eb 7cbd ba9e 50be bf30 0f3d
00000330: f498 a63d cc48 58be bff4 3bbe 0fc3 71be
00000340: 8ea9 84bd 03ca 2a3e 36f9 ffbe 4378 cc3e
00000350: 3ac6 c43d d5b9 ab3e f960 acbe f204 a13e
00000360: 8954 f13d a581 06be c058 033f c564 b93e
00000370: a25f c83d 5c11 ee3e 87bf 55bd b32f b9bd
00000380: 0fef 56bd 2190 6fbe 7693 123e a362 2c3e
00000390: e30b 9fbd 0df7 c53e 052c 843e fda8 0f3f
000003a0: 9532 cd3e 676c 233e 0d4b 5f3d 7cf8 5ebe
000003b0: 4212 fb3d 61dd 143e 7af3 e63d b060 ae3d
000003c0: 95f6 123c 464b 5d3d 1974 61be 6a61 f23d
000003d0: 08c9 0c3d ca54 3dbd 2e41 88bd ed0d 95be
000003e0: 9a01 d33d e9ba 043c 5bfc 3a3e 9564 8a3e
000003f0: d39b 733d 3b61 83bc 9ff8 5abe dcc3 f83e
-0.1951972 -0.20754126 0.19116549 0.30040294 -0.2892157 -0.30011058 0.25958398 0.006033281
-0.4511283 -0.44291282 0.07874017 0.32324183 -0.0976897 0.36583945 -0.0036818613 0.1279309
-0.3317241 -0.11563454 -0.09605936 -0.14999932 0.28556985 0.06871654 -0.17158294 0.16184196
-0.24067563 0.119880915 -0.33817434 -0.33892736 -0.14737996 0.14716284 -0.29369313 -0.32888523
-0.25192198 0.06381261 0.14096138 -0.12252645 -0.26395345 0.07300295 -0.19516002 -0.25416037
0.35559344 0.16361408 0.4298364 0.31594294 0.30862424 0.100412175 0.38510278 0.1821148
0.039235972 0.21695551 -0.15835266 0.16987304 -0.010464843 0.23069407 0.03143303 -0.30163053
-0.31748363 -0.15346237 0.18592273 -0.29734465 0.17176163 -0.28936246 0.08355082 -0.26376203
0.1617833 -0.25198743 0.41113684 -0.119707085 0.32067052 -0.2063638 0.10754246 0.060315304
-0.01668884 0.17002158 -0.16097085 -0.114611134 0.2941703 0.11595031 0.1821029 -0.18950255
0.26344717 -0.24539755 0.054041453 0.18602657 -0.27790314 0.24733196 -0.04714899 -0.21576479
0.16953537 0.39285004 -0.3553388 0.2060885 -0.16100849 -0.19108559 0.1475921 0.12101308
0.28273648 -0.025492694 -0.12301711 0.031060003 0.22891095 0.21592832 0.13872522 0.0678595
-0.43529853 0.09728523 -0.12463396 -0.26149267 0.35896203 -0.3095628 -0.23613329 -0.37431225
-0.1290037 -0.18309283 -0.261736 0.025120767 0.39281282 0.3291344 0.30167016 -0.44374022
-0.39008805 0.15106203 0.4789878 0.14507595 -0.37627023 0.009479584 -0.11765603 -0.09065742
0.28667587 0.35236883 -0.037599817 0.30793962 -0.1828688 0.698719 -0.2869551 0.25358364
0.06773531 0.052025605 0.034030672 0.3044433 0.082273796 -0.1474239 -0.061980437 -0.046688568
0.46691436 -0.23503122 -0.19061288 0.0036964912 -0.14856666 0.122985885 -0.10465156 0.14787108
0.1273897 -0.044734575 -0.47164434 0.09666863 0.20833854 -0.39879206 0.08788734 0.19585605
0.0920939 -0.33922845 0.20482114 -0.13157718 0.19363494 -0.046402685 -0.1601686 0.2817571
-0.20265105 -0.056811336 -0.15204285 0.24400064 0.0420843 -0.116648644 -0.030304851 0.28006843
0.22806542 -0.011106678 0.25311184 -0.069728196 0.0032820187 -0.16104472 -0.23935996 0.13876915
0.1506073 -0.28737772 0.21247938 -0.2328745 0.5481955 -0.17698011 -0.046283178 -0.11900146
0.019862302 -0.11118174 -0.04763377 -0.08087849 -0.0010170835 0.039197277 0.37070468 0.43751702
-0.02084348 -0.061748236 -0.2037305 0.034958597 0.08134642 -0.2112152 -0.18355082 -0.23609565
-0.064776525 0.16678624 -0.4999482 0.39935502 0.09608121 0.33540216 -0.33667734 0.31449085
0.11783702 -0.13135393 0.51307297 0.36209694 0.097838655 0.4649762 -0.052184608 -0.09042301
-0.052474078 -0.23394825 0.14314064 0.16834502 -0.07765939 0.38665047 0.25814834 0.5611723
0.40077654 0.15959321 0.054514933 -0.21774477 0.12259342 0.14537574 0.11276908 0.085145354
0.008969923 0.054026864 -0.22016944 0.118349865 0.034371406 -0.04622344 -0.06653057 -0.29112187
0.1030304 0.0081012035 0.18260328 0.27029863 0.059474777 -0.016037574 -0.21383904 0.4858693

l1.bias f4 [256]
00000000: f2e5 5a3e 1468 343d cfc0 543e d5b9 333e
00000010: 4193 383e 82c3 e33d 3a04 d13c 8ae6 12bc
00000020: 97a1 24be cc0e 283e 5178 75bd f418 283e
00000030: 71a4 94be 34c0 98bc a8f3 1e3e 0b9b 25be
00000040: e661 52be 0543 c7bc dd9e 393e cb17 41be
00000050: 9e82 543e 8647 873e 2537 303c 5321 a0bd
00000060: c25f 2b3e e2fd 9c3d 0366 14bd c93b 203d
00000070: 7ff1 83bd cd9e 1e3e 2b10 49be a788 98be
00000080: b4e0 be3d f038 433e af54 1bbd e67a c8bd
00000090: 9568 0f3e 42b3 523e 57ae 923e f037 0d3d
000000a0: 3df3 efbc c914 6a3d 2468 05be 3a80 1b3e
000000b0: 17e1 7bbd afc8 b83d 4d8b e03d 0eaf 623e
000000c0: 4eda 943e 4d7b 353e 60ff 17be 6ee9 623e
000000d0: c421 8bbe 174f 983d 23ae aabe d8c3 87be
000000e0: 8cc1 51be 1fce a23e ca95 abbc 1d9e 30bd
000000f0: 2964 3f3e 8f8b 8c3d 9004 3d3e 2f5e eabc
00000100: d649 50be 1790 6e3d bd7b d5bd 75f1 37be
00000110: f520 afbe 5bdb d4bd de38 ed3d ef18 d23d
00000120: 5389 3d3c d18b 273e 7b86 12be d3ef 97be
00000130: c1fb 5c3e 8ba3 503e f84d b4bd cdb1 953d
00000140: 5489 a43d 8a2e 483d 144e 253d 7cab 8dbe
00000150: 591d da3d 48ec df3d 40ed a5bb 8724 7ebe
00000160: 2bdf ef3c d635 f53c 5ef6 06be 7300 1d3d
00000170: 81d9 d73d 7012 30bd d010 723e 9292 5c3e
00000180: 5d6c 8c3d 7d54 cbbd fec9 71be a929 c93c
00000190: 016a 063d a977 1abe b60e 3dbd de5e a8bc
000001a0: 5271 6dbd d2f2 303e 48a2 993e 3c89 953e
000001b0: 61e9 68bd 7896 253d b579 393e 2ffc 0cbe
000001c0: 037c 2c3c 0275 083d b328 49be 5aef 7bbe
000001d0: 6abe 11be 5b03 bbbd b620 83be fb69 93be
000001e0: 334e bb3e 91ee 24bd e03e 923d 30b0 56be
000001f0: 1ed8 523d 98de 323d 1642 ebbd fca8 d83d
00000200: e856 fbbb 9132 b1bd c5aa 3a3e a62a ad3d
00000210: 0a60 88bc 7573 983a f217 163d 8061 4f3d
00000220: a346 9c3a 27f2 8c3e 21e0 d83d 0c82 96bc
00000230: 073b 563d 9940 69be 7ffb 83bd 6303 1f3e
00000240: beb7 263e 3b78 82be 1f34 fbbd 389f 30be
00000250: a386 fcbc 672c 823e 049a 94be 8855 113e
00000260: 198e abbe c7d8 5d3e f743 76be 974f 89be
00000270: 3d90 acbc b86c 893c 6f43 033d dd43 033e
00000280: f551 9b3d 9f9a 903e f56b 48be 8417 0d3e
00000290: 3191 49be 0942 42be dcce c83d 4cd3 d63d
000002a0: 02e8 3ebe 6da1 0d3c 6244 2abb ba9b 453d
000002b0: 5e38 94be 7426 b4bd a459 31be f5fa 8bbe
000002c0: 7506 703e d86f 913c de36 84bb e5c8 62be
000002d0: 3f80 373e 011c 4fbd 0122 26be 8297 21be
000002e0: 7374 873e 82a8 033e bf19 2bbe 5cc1 593e
000002f0: 5237 49be ef97 00be d2fa 633e ada2 c83d
00000300: e23c 38bd ae8d 9e3e 0c36 6cbe 47f3 873e
00000310: 0c06 14be f1e8 80be 10ee 293e deef e63b
00000320: 8f73 ec3a ee78 74be 6c5e b9bd 82e2 91bd
00000330: d008 9fbd 966e 7abc 82b4 4fbe 7ac4 91bd
00000340: 05ee 2bbe 1b24 d33c b4ad 683e 3f03 89be
00000350: b180 b2bd 8a08 7e3e b366 363e 8e00 b7bd
00000360: 17d8 83be 1f76 d2bc e72e 84be 49bd 803d
00000370: 1a77 60bd 436a 603e 31b4 15be a1d8 c83d
00000380: 549e efbd 7941 6d3e e738 13be 9770 39be
00000390: cb37 5fbe edd1 d83d f083 68bc 650c 863e
000003a0: f001 48be cd25 8d3e 51c2 653e e8cc 02bd
000003b0: 3257 55be f88a 3dbe 7538 033e 558e 763c
000003c0: d0ca 52bd 4feb 273e 42f3 87bd 2b8e 15be
000003d0: 3a73 f13d 7410 753e 838f 223d cc57 62bc
000003e0: 86d2 edbc c942 f2bd 77b2 26bc 2437 90be
000003f0: 7af8 723e ca92 a43d de97 723b b653 9abb
0.2137678 0.04404457 0.20776676 0.17551358 0.18024923 0.111212745 0.02551471 -0.008966098
-0.16077267 0.16411895 -0.059929196 0.16415769 -0.2903171 -0.018646337 0.15522635 -0.16172425
-0.20545158 -0.02432395 0.18127008 -0.18856733 0.20752952 0.26421756 0.010755335 -0.07818856
0.16735747 0.07665612 -0.0362301 0.039119516 -0.06442546 0.15490265 -0.19635074 -0.29791757
0.093202025 0.19064689 -0.037922557 -0.09789066 0.14004739 0.20576194 0.28648636 0.034477174
-0.02929079 0.05714873 -0.13028008 0.15185633 -0.06149396 0.09022652 0.109640695 0.2213709
0.29072803 0.17722817 -0.14843512 0.22159359 -0.271742 0.0743696 -0.3333598 -0.26516604
-0.20483989 0.31797883 -0.020945448 -0.04311954 0.18690552 0.06862556 0.18458772 -0.028609363
-0.20340666 0.058242884 -0.10423992 -0.17963202 -0.34204832 -0.10393401 0.11583112 0.10258662
0.011568385 0.1636193 -0.14309113 -0.2967516 0.21580411 0.20374887 -0.08803934 0.073093034
0.08034006 0.048872508 0.040357664 -0.27669895 0.10650129 0.10933739 -0.005063683 -0.24818622
0.02928122 0.029932898 -0.13179919 0.038330507 0.105395325 -0.042986333 0.23639226 0.21540287
0.06856606 -0.09928224 -0.2361221 0.024555998 0.032815937 -0.15084709 -0.046156608 -0.020553049
-0.0579694 0.17280129 0.30006623 0.29206264 -0.056863192 0.0404267 0.18112834 -0.13768075
0.010527614 0.033314712 -0.19644432 -0.24603024 -0.14232793 -0.091314994 -0.25610894 -0.28791794
0.365831 -0.040266577 0.07140899 -0.20965648 0.051475637 0.043669313 -0.11487214 0.10579106
-0.007670272 -0.08652223 0.18229206 0.084554 -0.016647357 0.0011631089 0.03664393 0.050630093
0.0011922907 0.27528498 0.10589624 -0.018372558 0.052302387 -0.22778548 -0.064444534 0.15528636
0.1628103 -0.25482354 -0.12265801 -0.17248237 -0.030825919 0.254245 -0.29023755 0.14192784
-0.3350685 0.21664725 -0.24049364 -0.26818535 -0.021064872 0.016775474 0.03204673 0.12818857
0.075839914 0.28242967 -0.19572432 0.13778502 -0.19684292 -0.18970503 0.0980508 0.104895204
-0.18643191 0.008644444 -0.00259807 0.048244216 -0.28949255 -0.08796397 -0.17319351 -0.27339903
0.23439963 0.017753527 -0.004034861 -0.22146948 0.17920016 -0.050563816 -0.16223909 -0.15780452
0.2645603 0.1285725 -0.1670904 0.21265167 -0.1965001 -0.12557958 0.22263649 0.09796653
-0.044979937 0.30967468 -0.23067492 0.26552793 -0.14455432 -0.2517772 0.1659472 0.0070476374
0.001803981 -0.23874256 -0.09051213 -0.07123281 -0.07765353 -0.015285155 -0.20283702 -0.07117553
-0.16790016 0.025774052 0.22722512 -0.2676029 -0.08715952 0.24807945 0.17812614 -0.08935653
-0.257508 -0.02569109 -0.25817034 0.06286103 -0.054801084 0.21915536 -0.14619519 0.09806944
-0.117001206 0.23169507 -0.14377175 -0.18109356 -0.21798627 0.10586915 -0.014191613 0.2618133
-0.19531989 0.27567902 0.22437407 -0.031933695 -0.20834044 -0.18510044 0.12814505 0.015048583
-0.05146295 0.16398357 -0.066381946 -0.14605014 0.11789556 0.23932058 0.039687645 -0.013814878
-0.02903105 -0.118291445 -0.010174385 -0.2816707 0.23727599 0.0803581 0.003701679 -0.004709686

l3.weight f4 [3, 256]
00000000: add6 813e 428a 82be 9936 363e 18e4 e5bd
00000010: 4f16 b3bd 79bd 4e3e 65ea c9bd 6d4a 94be
00000020: 0e31 96bd 5f25 96bd f967 dabe 465f fcbd
00000030: 5658 333e 6797 56bd af93 553e 02eb 8c3d
00000040: faf3 98bd c1e2 6a3d a3b1 00bd 4c2b 93be
00000050: e32c c1bd 3aeb cabd a7a7 acbd 480b ac3c
00000060: b2aa d3bd f167 acbd 59d8 49be 65cb 07be
00000070: 29cd 2dbe 561d 81bd 53ec e4bd 8fec 41be
00000080: 4780 cbbd 2349 d6bd 4e5f b6be b5b4 abbe
00000090: 2426 1e3e 5f94 cb3c ff9d 603e f104 d03d
000000a0: 1b29 343e 4123 0c3e c5d0 5d3e 8caa 6bbe
000000b0: 7aaf 73ba e53f cabd eeb5 bf3d 7be8 9b3e
000000c0: d9db f5bd c6e2 4ebd d379 3fbc 6a84 a93d
000000d0: f852 a03c 3251 c43c 5b51 563a 2b6d 79be
000000e0: 6b90 54be f177 313e c7e7 41bc 8db7 76be
000000f0: 54c6 263c d54e b73d 4a9a e83c 6548 1bbd
00000100: a6c9 0d3d 71a6 d6bd 6442 b5be d0f1 07bd
00000110: 18ae 37be 559f 00be 5626 3e3e 7606 e13c
00000120: 7e95 d3be 02c7 c63d d3a2 743b 6f48 60be
00000130: 841a ddbd aef4 ac3e 4380 7d3d 37bd e5bd
00000140: 75d7 5c3d 6475 debd 6efa cc3d 4ae5 af3c
00000150: e933 cebd 9881 093e 5b0c a23e 4dc8 db3b
00000160: 43a1 153e 92de b0bd fc51 94be 8435 79be
00000170: 5275 193e 8545 29be 4025 dfbd 0060 cb3a
00000180: 3e10 00be 1969 34be 1a3c 7abe d69d 15be
00000190: b1ab 87bd 4927 943e 1c5d ff3d 0acb bdbe
000001a0: 713e f3bb 7944 b63d 4e2f 42bc fc17 df3d
000001b0: 1714 4a3d 01bd cc3e 3278 1a3d 6d87 9b3d
000001c0: 25a2 083e 409e 60be 07c5 303e d0c7 12bd
000001d0: 05c6 5cbb e6bd 383e 4de6 9ebe cd4a 513e
000001e0: a30b 943e 49be 40be bbd8 68bd 741e 86be
000001f0: f120 3ebd c8e5 113e 26fa 37be 40b0 02be
00000200: 0664 5abe 6b7f a1bd 743d 183d a685 3cbe
00000210: 92d6 88be 9dea 953d 321d b9be d323 583e
00000220: 554e 70be 68d1 a4bc 156f ffbd f2cf 903d
00000230: 6fa5 26be 0cec 63be 73f4 0abe 7b17 823e
00000240: d6fa a83e 90a1 debd dcc8 ecbd 3109 69be
00000250: c54e 023e 2499 53bb f9f8 20bd 8096 0abe
00000260: 0621 523d 1dca 9c3c 42ae b93c 13a6 b73c
00000270: 5bff 97be 9e7c 1bbe c4ba 01be 904f f53d
00000280: 39c8 21be f0ac 083e d9ce 5c3d 71e3 223e
00000290: fb00 183e 6537 2dbe 268d f8bd d290 03be
000002a0: 8970 033e 9777 823e 03f3 3fbd 23cd b23d
000002b0: 9173 4a3d 8032 87bc 0c46 81be 3071 16be
000002c0: 60af 12be fc99 a93d 2fac 08be fa03 5f3e
000002d0: 4d60 423c ac3d 7cbe bd1d b5be 6895 a0be
000002e0: f1f5 9fbd ab8e 63bd 21dc 59be fa8e 49bd
000002f0: 48ed 533c 207f c43b 2f54 43bd 7ce0 96bd
00000300: dca4 1fbe 2983 743d 8262 9fbe 0135 b3bd
00000310: 0c8a d8bd e9a9 4d3e d25c 78bd e3b1 c8be
00000320: 0efe 82bd 3889 06be 1d38 403e 6769 2abe
00000330: 7095 59be 1039 6cbe 0a2e 86be 4ccc 91be
00000340: 0cae 76bc 9ad7 943e f597 513e 225a 73be
00000350: 0c65 97bb b26a 393a 64d1 ba3e b965 a1be
00000360: 829a 5ebe fbc5 9cbe 5f75 913d ddc6 503e
00000370: 3f34 38be e09f c3bd 5bf1 44be 7322 8c3e
00000380: 653c 36be 638a 2e3e 2ed4 a3be 9b7d df3d
00000390: 4ae7 38be 6af8 a83d b49a adbe a2a8 ccbc
000003a0: 1d6a 0dbe 3f32 b6bc 3b76 02be 1530 85bd
000003b0: 0815 1ebd 6a5c e43d f9fd 9cbe a24a 9abe
000003c0: c1b6 b53c bf37 e8bc fbaf 9ebe 691f 83be
000003d0: b900 bcbd 0d77 48bc b443 323e 918b a93e
000003e0: 625c bc3d 761e 5ebe 4e6a 483e 8511 ec3d
000003f0: 490d 543c b3e7 323a 26cd 5ebe 8628 81bc
0.25359097 -0.25496107 0.17794265 -0.11225146 -0.087444894 0.20189466 -0.0985916 -0.28963032
-0.07333575 -0.07331347 -0.4265745 -0.123228595 0.17514166 -0.052390482 0.20857118 0.06880762
-0.0746841 0.057345156 -0.031419408 -0.2874397 -0.094323896 -0.09908147 -0.08430415 0.021001473
-0.10335292 -0.08418263 -0.19711436 -0.13261183 -0.16972794 -0.063044235 -0.11177888 -0.18937896
-0.09936576 -0.104631685 -0.35619587 -0.33536306 0.15444237 0.024851022 0.2193527 0.101571925
0.17593805 0.13685323 0.2166167 -0.23014277 -0.00092958624 -0.09875468 0.09360872 0.30450806
-0.12004823 -0.050509237 -0.01168676 0.08277209 0.019570813 0.023964498 0.0008175575 -0.2435805
-0.20758216 0.1733091 -0.011835045 -0.24093457 0.010179121 0.08950583 0.028393883 -0.037910838
0.034616135 -0.10480965 -0.35402215 -0.033189595 -0.17937505 -0.1256078 0.18569311 0.027468901
-0.4132499 0.097059265 0.0037328496 -0.21902631 -0.10796073 0.33780426 0.061889898 -0.112177305
0.053916413 -0.10862234 0.10008703 0.021471638 -0.10068495 0.13428342 0.3165005 0.0067072273
0.14612298 -0.08636202 -0.289688 -0.24336821 0.1498616 -0.16530426 -0.10895777 0.0015516281
-0.12506196 -0.17618217 -0.2443699 -0.14610991 -0.066245444 0.28936222 0.12468931 -0.3706897
-0.007423215 0.08899779 -0.011852099 0.108932465 0.049335565 0.3998795 0.037712283 0.0759419
0.13343103 -0.21935368 0.1726266 -0.035835087 -0.0033687365 0.1804119 -0.3103508 0.2043869
0.28915128 -0.18822588 -0.056847315 -0.2619511 -0.046418134 0.14247811 -0.17966518 -0.12762547
-0.21327218 -0.07885631 0.03716798 -0.18410358 -0.26726204 0.073201396 -0.36155087 0.21107416
-0.23467381 -0.020119384 -0.12472359 0.070709124 -0.16274045 -0.22258013 -0.13569812 0.2540854
0.33003873 -0.10870659 -0.115617484 -0.22757412 0.1272536 -0.0032287324 -0.03929994 -0.13533974
0.051301025 0.019139344 0.0226661 0.022418058 -0.29687008 -0.15184256 -0.12668902 0.11978066
-0.15799035 0.1334722 0.053908203 0.15907075 0.14844124 -0.16915663 -0.12136297 -0.12848213
0.12835898 0.25481865 -0.046862613 0.08730533 0.04942662 -0.016503572 -0.25248754 -0.14691615
-0.14324713 0.08281323 -0.13346933 0.2177886 0.01186378 -0.24632901 -0.3537425 -0.31363988
-0.078105815 -0.05555598 -0.21275379 -0.04920862 0.01293499 0.0059966 -0.047687706 -0.07367036
-0.15590233 0.059695397 -0.31129843 -0.08750344 -0.10573205 0.20084347 -0.060635395 -0.39198217
-0.06396113 -0.13138282 0.18771406 -0.1664177 -0.21248412 -0.23068643 -0.26207 -0.2847618
-0.015056144 0.2907074 0.20468123 -0.23764852 -0.0046202 0.0007073089 0.36487877 -0.3152292
-0.21738628 -0.30619797 0.07102465 0.2038836 -0.1798868 -0.09551978 -0.19232695 0.27370033
-0.17796476 0.17044978 -0.31997818 0.10912629 -0.1805698 0.08250506 -0.33907092 -0.024982754
-0.1381001 -0.022240756 -0.12740414 -0.065033115 -0.038594276 0.11150439 -0.30662516 -0.30135065
0.02218187 -0.028346894 -0.30993637 -0.25609902 -0.09179825 -0.012235415 0.17408639 0.33114293
0.09197308 -0.21691307 0.19571802 0.11526779 0.012942621 0.0006824687 -0.21757945 -0.015766393

l3.bias f4 [3]
00000000: b737 603d 7d7d 62bd 53a9 bbbd
0.054740634 -0.055295456 -0.091631554
